…
cution":{"iopub.status.busy":"2024-09-06T22:13:14.481606Z","iopub.execute_input":"2024-09-06T22:13:14.482666Z","iopub.status.idle":"2024-09-06T22:13:15.775325Z","shell.execute_reply.started":"2024-09-06T22:13:14.482620Z","shell.execute_reply":"2024-09-06T22:13:15.774323Z"},"trusted":true},"execution_count":5,"outputs":[{"name":"stderr","text":"/tmp/ipykernel_36/1725142899.py:25: FutureWarning: `nn.init.xavier_uniform` is now deprecated in favor of `nn.init.xavier_uniform_`.\n  torch.nn.init.xavier_uniform(m.weight)\n","output_type":"stream"},{"name":"stdout","text":"PINNsformer(\n  (linear_emb): Linear(in_features=2, out_features=32, bias=True)\n  (encoder): Encoder(\n    (layers): ModuleList(\n      (0): EncoderLayer(\n        (attn): MultiheadAttention(\n          (out_proj): NonDynamicallyQuantizableLinear(in_features=32, out_features=32, bias=True)\n        )\n        (ff): FeedForward(\n          (linear): Sequential(\n            (0): Linear(in_features=32, out_features=256, bias=True)\n            (1): WaveAct()\n            (2): Linear(in_features=256, out_features=256, bias=True)\n            (3): WaveAct()\n            (4): Linear(in_features=256, out_features=32, bias=True)\n          )\n        )\n        (act1): WaveAct()\n        (act2): WaveAct()\n      )\n    )\n    (act): WaveAct()\n  )\n  (decoder): Decoder(\n    (layers): ModuleList(\n      (0): DecoderLayer(\n        (attn): MultiheadAttention(\n          (out_proj): NonDynamicallyQuantizableLinear(in_features=32, out_features=32, bias=True)\n        )\n        (ff): FeedForward(\n          (linear): Sequential(\n            (0): Linear(in_features=32, out_features=256, bias=True)\n            (1): WaveAct()\n            (2): Linear(in_features=256, out_features=256, bias=True)\n            (3): WaveAct()\n            (4): Linear(in_features=256, out_features=32, bias=True)\n          )\n        )\n        (act1): WaveAct()\n        (act2): WaveAct()\n      )\n    )\n    (act): WaveAct()\n  )\n  (linear_out): Sequential(\n    (0): Linear(in_features=32, out_features=512, bias=True)\n    (1): WaveAct()\n    (2): Linear(in_features=512, out_features=512, bias=True)\n    (3): WaveAct()\n    (4): Linear(in_features=512, out_features=1, bias=True)\n  )\n)\n453561\n","output_type":"stream"}]},{"cell_type":"code","source":"loss_track = []\n\nfor i in tqdm(range(500)):\n    def closure():\n        pred_res = model(x_res, t_res)\n        pred_left = model(x_left, t_left)\n        pred_right = model(x_right, t_right)\n        pred_upper = model(x_upper, t_upper)\n        pred_lower = model(x_lower, t_l
…
