…
h.optim as optimer\nmodel.apply(init_weights)\noptim = LBFGS(model.parameters(), line_search_fn='strong_wolfe')\n#optim = optimer.Adam(model.parameters(), lr=1e-4)\n\nprint(model)\nprint(get_n_params(model))","metadata":{"execution":{"iopub.status.busy":"2024-09-09T00:06:43.842869Z","iopub.execute_input":"2024-09-09T00:06:43.843269Z","iopub.status.idle":"2024-09-09T00:06:43.865614Z","shell.execute_reply.started":"2024-09-09T00:06:43.843231Z","shell.execute_reply":"2024-09-09T00:06:43.864704Z"},"trusted":true},"execution_count":198,"outputs":[{"name":"stdout","text":"PINNsformer(\n  (linear_emb): Linear(in_features=2, out_features=32, bias=True)\n  (encoder): Encoder(\n    (layers): ModuleList(\n      (0): EncoderLayer(\n        (attn): MultiheadAttention(\n          (out_proj): NonDynamicallyQuantizableLinear(in_features=32, out_features=32, bias=True)\n        )\n        (ff): FeedForward(\n          (linear): Sequential(\n            (0): Linear(in_features=32, out_features=256, bias=True)\n            (1): WaveAct()\n            (2): Linear(in_features=256, out_features=256, bias=True)\n            (3): WaveAct()\n            (4): Linear(in_features=256, out_features=32, bias=True)\n          )\n        )\n        (act1): WaveAct()\n        (act2): WaveAct()\n      )\n    )\n    (act): WaveAct()\n  )\n  (decoder): Decoder(\n    (layers): ModuleList(\n      (0): DecoderLayer(\n        (attn): MultiheadAttention(\n          (out_proj): NonDynamicallyQuantizableLinear(in_features=32, out_features=32, bias=True)\n        )\n        (ff): FeedForward(\n          (linear): Sequential(\n            (0): Linear(in_features=32, out_features=256, bias=True)\n            (1): WaveAct()\n            (2): Linear(in_features=256, out_features=256, bias=True)\n            (3): WaveAct()\n            (4): Linear(in_features=256, out_features=32, bias=True)\n          )\n        )\n        (act1): WaveAct()\n        (act2): WaveAct()\n      )\n    )\n    (act): WaveAct()\n  )\n  (linear_out): Sequential(\n    (0): Linear(in_features=32, out_features=512, bias=True)\n    (1): WaveAct()\n    (2): Linear(in_features=512, out_features=512, bias=True)\n    (3): WaveAct()\n    (4): Linear(in_features=512, out_features=1, bias=True)\n  )\n)\n453561\n","output_type":"stream"}]},{"cell_type":"code","source":"#print(x_res)\ndef check_nan(tensor, name):\n    if torch.isnan(tensor).any():\n        print(f\"NaNs detected in {name}\")\nloss_track = []\na = 0.4  # Thermal diffusivity\nL = 1  # Length of the bar\nn = 1  # Frequency of the sinusoidal initial conditions\nk= 0 \nfor i in tqdm(r
…
